{"keras_version": "2.1.4-tf", "config": {"name": "T1000_Net", "layers": [{"config": {"dtype": "float32", "sparse": false, "batch_input_shape": [null, 224, 224, 3], "name": "input_1"}, "name": "input_1", "inbound_nodes": [], "class_name": "InputLayer"}, {"config": {"activation": "linear", "dilation_rate": [1, 1], "kernel_initializer": {"config": {"dtype": "float32", "mode": "fan_avg", "scale": 1.0, "seed": null, "distribution": "uniform"}, "class_name": "VarianceScaling"}, "trainable": true, "kernel_size": [1, 1], "bias_constraint": null, "use_bias": "false", "kernel_regularizer": null, "strides": [1, 1], "filters": 64, "activity_regularizer": null, "data_format": "channels_last", "dtype": "float32", "bias_regularizer": null, "name": "conv_1", "kernel_constraint": null, "bias_initializer": {"config": {"dtype": "float32"}, "class_name": "Zeros"}, "padding": "same"}, "name": "conv_1", "inbound_nodes": [[["input_1", 0, 0, {}]]], "class_name": "Conv2D"}, {"config": {"gamma_initializer": {"config": {"dtype": "float32"}, "class_name": "Ones"}, "beta_regularizer": null, "trainable": true, "gamma_constraint": null, "moving_variance_initializer": {"config": {"dtype": "float32"}, "class_name": "Ones"}, "center": true, "epsilon": 0.001, "moving_mean_initializer": {"config": {"dtype": "float32"}, "class_name": "Zeros"}, "beta_constraint": null, "momentum": 0.99, "dtype": "float32", "name": "bn_1", "gamma_regularizer": null, "scale": true, "beta_initializer": {"config": {"dtype": "float32"}, "class_name": "Zeros"}, "axis": [3]}, "name": "bn_1", "inbound_nodes": [[["conv_1", 0, 0, {}]]], "class_name": "BatchNormalization"}, {"config": {"activation": "relu", "dtype": "float32", "name": "act_1", "trainable": true}, "name": "act_1", "inbound_nodes": [[["bn_1", 0, 0, {}]]], "class_name": "Activation"}, {"config": {"activation": "linear", "dilation_rate": [1, 1], "kernel_initializer": {"config": {"dtype": "float32", "mode": "fan_avg", "scale": 1.0, "seed": null, "distribution": "uniform"}, "class_name": "VarianceScaling"}, "trainable": true, "kernel_size": [3, 3], "bias_constraint": null, "use_bias": "false", "kernel_regularizer": null, "strides": [2, 2], "filters": 64, "activity_regularizer": null, "data_format": "channels_last", "dtype": "float32", "bias_regularizer": null, "name": "conv_2", "kernel_constraint": null, "bias_initializer": {"config": {"dtype": "float32"}, "class_name": "Zeros"}, "padding": "same"}, "name": "conv_2", "inbound_nodes": [[["act_1", 0, 0, {}]]], "class_name": "Conv2D"}, {"config": {"gamma_initializer": {"config": {"dtype": "float32"}, "class_name": "Ones"}, "beta_regularizer": null, "trainable": true, "gamma_constraint": null, "moving_variance_initializer": {"config": {"dtype": "float32"}, "class_name": "Ones"}, "center": true, "epsilon": 0.001, "moving_mean_initializer": {"config": {"dtype": "float32"}, "class_name": "Zeros"}, "beta_constraint": null, "momentum": 0.99, "dtype": "float32", "name": "bn_2", "gamma_regularizer": null, "scale": true, "beta_initializer": {"config": {"dtype": "float32"}, "class_name": "Zeros"}, "axis": [3]}, "name": "bn_2", "inbound_nodes": [[["conv_2", 0, 0, {}]]], "class_name": "BatchNormalization"}, {"config": {"activation": "relu", "dtype": "float32", "name": "act_2", "trainable": true}, "name": "act_2", "inbound_nodes": [[["bn_2", 0, 0, {}]]], "class_name": "Activation"}, {"config": {"activation": "linear", "dilation_rate": [1, 1], "kernel_initializer": {"config": {"dtype": "float32", "mode": "fan_avg", "scale": 1.0, "seed": null, "distribution": "uniform"}, "class_name": "VarianceScaling"}, "trainable": true, "kernel_size": [1, 1], "bias_constraint": null, "use_bias": "false", "kernel_regularizer": null, "strides": [1, 1], "filters": 128, "activity_regularizer": null, "data_format": "channels_last", "dtype": "float32", "bias_regularizer": null, "name": "conv_3", "kernel_constraint": null, "bias_initializer": {"config": {"dtype": "float32"}, "class_name": "Zeros"}, "padding": "same"}, "name": "conv_3", "inbound_nodes": [[["act_2", 0, 0, {}]]], "class_name": "Conv2D"}, {"config": {"gamma_initializer": {"config": {"dtype": "float32"}, "class_name": "Ones"}, "beta_regularizer": null, "trainable": true, "gamma_constraint": null, "moving_variance_initializer": {"config": {"dtype": "float32"}, "class_name": "Ones"}, "center": true, "epsilon": 0.001, "moving_mean_initializer": {"config": {"dtype": "float32"}, "class_name": "Zeros"}, "beta_constraint": null, "momentum": 0.99, "dtype": "float32", "name": "bn_3", "gamma_regularizer": null, "scale": true, "beta_initializer": {"config": {"dtype": "float32"}, "class_name": "Zeros"}, "axis": [3]}, "name": "bn_3", "inbound_nodes": [[["conv_3", 0, 0, {}]]], "class_name": "BatchNormalization"}, {"config": {"activation": "relu", "dtype": "float32", "name": "act_3", "trainable": true}, "name": "act_3", "inbound_nodes": [[["bn_3", 0, 0, {}]]], "class_name": "Activation"}, {"config": {"activation": "linear", "dilation_rate": [1, 1], "kernel_initializer": {"config": {"dtype": "float32", "mode": "fan_avg", "scale": 1.0, "seed": null, "distribution": "uniform"}, "class_name": "VarianceScaling"}, "trainable": true, "kernel_size": [3, 3], "bias_constraint": null, "use_bias": "false", "kernel_regularizer": null, "strides": [2, 2], "filters": 128, "activity_regularizer": null, "data_format": "channels_last", "dtype": "float32", "bias_regularizer": null, "name": "conv_4", "kernel_constraint": null, "bias_initializer": {"config": {"dtype": "float32"}, "class_name": "Zeros"}, "padding": "same"}, "name": "conv_4", "inbound_nodes": [[["act_3", 0, 0, {}]]], "class_name": "Conv2D"}, {"config": {"gamma_initializer": {"config": {"dtype": "float32"}, "class_name": "Ones"}, "beta_regularizer": null, "trainable": true, "gamma_constraint": null, "moving_variance_initializer": {"config": {"dtype": "float32"}, "class_name": "Ones"}, "center": true, "epsilon": 0.001, "moving_mean_initializer": {"config": {"dtype": "float32"}, "class_name": "Zeros"}, "beta_constraint": null, "momentum": 0.99, "dtype": "float32", "name": "bn_4", "gamma_regularizer": null, "scale": true, "beta_initializer": {"config": {"dtype": "float32"}, "class_name": "Zeros"}, "axis": [3]}, "name": "bn_4", "inbound_nodes": [[["conv_4", 0, 0, {}]]], "class_name": "BatchNormalization"}, {"config": {"activation": "relu", "dtype": "float32", "name": "act_4", "trainable": true}, "name": "act_4", "inbound_nodes": [[["bn_4", 0, 0, {}]]], "class_name": "Activation"}, {"config": {"dtype": "float32", "name": "global_average_pooling2d_1", "trainable": true, "data_format": "channels_last"}, "name": "global_average_pooling2d_1", "inbound_nodes": [[["act_4", 0, 0, {}]]], "class_name": "GlobalAveragePooling2D"}, {"config": {"dtype": "float32", "name": "flatten_1", "trainable": true}, "name": "flatten_1", "inbound_nodes": [[["global_average_pooling2d_1", 0, 0, {}]]], "class_name": "Flatten"}, {"config": {"units": 32, "kernel_initializer": {"config": {"dtype": "float32", "mode": "fan_avg", "scale": 1.0, "seed": null, "distribution": "uniform"}, "class_name": "VarianceScaling"}, "trainable": true, "bias_constraint": null, "use_bias": true, "kernel_regularizer": null, "activation": "relu", "activity_regularizer": null, "dtype": "float32", "bias_regularizer": null, "name": "dense_1", "kernel_constraint": null, "bias_initializer": {"config": {"dtype": "float32"}, "class_name": "Zeros"}}, "name": "dense_1", "inbound_nodes": [[["flatten_1", 0, 0, {}]]], "class_name": "Dense"}, {"config": {"rate": 0.001, "seed": null, "trainable": true, "dtype": "float32", "name": "dropout_1", "noise_shape": null}, "name": "dropout_1", "inbound_nodes": [[["dense_1", 0, 0, {}]]], "class_name": "Dropout"}, {"config": {"units": 3, "kernel_initializer": {"config": {"dtype": "float32", "mode": "fan_avg", "scale": 1.0, "seed": null, "distribution": "uniform"}, "class_name": "VarianceScaling"}, "trainable": true, "bias_constraint": null, "use_bias": true, "kernel_regularizer": null, "activation": "softmax", "activity_regularizer": null, "dtype": "float32", "bias_regularizer": null, "name": "softmax", "kernel_constraint": null, "bias_initializer": {"config": {"dtype": "float32"}, "class_name": "Zeros"}}, "name": "softmax", "inbound_nodes": [[["dropout_1", 0, 0, {}]]], "class_name": "Dense"}], "output_layers": [["softmax", 0, 0]], "input_layers": [["input_1", 0, 0]]}, "backend": "tensorflow", "class_name": "ThinModel"}